BotFin/nlpFinalModel (1).pt (torch, 189633 bytes, 18 tensors)

lstm.weight_ih_l0 f4 [128, 50]
00000000: 71a4 8d3e 37f0 5b3e 001f 773d 5d9d 2d3e
00000010: 9e6c 3dbd d59b a2be ee6e b53e 21d5 8f3d
00000020: 1f90 07be 6138 3d3e 3aa7 95be 81b8 13bd
00000030: 9634 31be 5845 e23d 699e d5be fa29 6cbe
00000040: 0bb5 483e 5398 06bd eacb 6dbd 44e5 62be
00000050: d36f eb3d 92d1 933e d86e 73bd ddbe c43e
00000060: 54fb 093e 0f46 babd 36e4 a83d 0dde d4bc
00000070: 0cd2 09be dcb6 483e 07e3 b73e 2b8c b83e
00000080: b769 bfbd c140 133e 624a e9bc a383 56bd
00000090: 5c4b 043e 7c57 87be d38f 873e dd1f af3d
000000a0: 1664 66bd cc62 71be b3f6 bf3e 7a7a 053f
000000b0: c0a5 913e 763c 89be 4df2 babe 4bff 0bbe
000000c0: 850d 0e3e db23 183c b0bf 17be 34aa 1bbf
000000d0: f085 693e d7f3 683d 388b 333e 77ec a03e
000000e0: 055e 3abe 968c 9d3e 7d9d 6dbe 05ca 2b3e
000000f0: 89f0 98be bae1 25be f13c e1bb 3e7a 293e
00000100: 2e12 953e cb42 273e 1ab1 a0be a0cb ce3e
00000110: 9dcb d33d 186f 00be 9ca9 b73d 955d 60be
00000120: a1e9 babe 4821 e43d c380 88be 9137 91bd
00000130: 3dbd 543e b1f5 4b3e f2c1 643e 7280 a53e
00000140: 3d47 53be 4227 243e c56a 883e e84e aa3d
00000150: dd06 213d 239b 6a3e c793 ba3a b744 773e
00000160: a3ec 16be ba5e d43e eda5 35bc bf5c 17bf
00000170: 72ae e6bd 9e73 7abd 7dd2 073e 22de babd
00000180: 104e 5f3e 3913 0b3f 7c10 af3e 7777 363e
00000190: 4abe b1bb 7e51 803d be1c d73d 4815 ad3e
000001a0: 7444 ccbd 251a 82be df96 5fbe 86a7 6fbe
000001b0: 9f44 433e 28f6 3bbe 5ddc 343e 4071 a5bd
000001c0: f8a8 f4bd bdbd 8dbe 1a53 37bd f877 0abd
000001d0: c492 88be 4d12 0c3b ff74 c43d 8690 ed3d
000001e0: 3b38 493e 12ce e5bc b363 c63c 7fba 21be
000001f0: f8ee d0bc b3e3 f7bd 93fc bbbd ac84 4cbc
00000200: f1eb df3d f9ba 813e 4353 58be 5b69 e03d
00000210: 53f1 49be 512d fabe c03c cdbc b0e1 bb3c
00000220: 6d85 c8be 96d7 d23e 661a a6be 756c 33bd
00000230: ed40 8f3d a8fd b4bd 15cb a73e b0bd b53d
00000240: b620 75be e591 22bf a7a8 003e e320 6abe
00000250: cadb 093e ee1c 96bd e387 ef3d 94aa 20be
00000260: e18c 973d 7375 d73e 52c8 b0be fa4f 513e
00000270: 5feb b1be 5ff9 553e f328 66bd 6be0 093e
00000280: 8ac4 f83d 8e85 313d 311b debb 133b ac3e
00000290: 24bc 2bbe aa67 b13e 2bae b0be 3155 373e
000002a0: 8c0b b5bd 3899 d33e f61d 543e f21c a2be
000002b0: a31a 1dbf b87b 353e 2875 10bd 1c04 ba3e
000002c0: e7b0 cd3e c057 093e 5a6c 673c 1d7b 66bc
000002d0: 0e7b 9fbe ec34 1f3d cbcf 153e 902d 8abe
000002e0: f817 303e c91e db3d 1030 923e 746f 7d3d
000002f0: 4746 c7be 4b84 b33d bffc 0e3d da41 61be
00000300: b75d 243d 7845 0f3f 58a0 b93d d04b 81be
00000310: 40f6 b23e 3ad7 cfbd d3fc 9dbe e321 e0be
00000320: 5055 5c3e 6445 e93e 1201 d3bd 539f 6b3e
00000330: 0b3a e1bd 2f2d 03bd 18f7 2ebe 28b0 a8bd
00000340: d436 f2bd 4724 90bd 50b4 4d3d a47c e83d
00000350: 49bd 4fbd 57cf d4be 959e 16be d7ef 823d
00000360: 587b 833b c2d2 eebe decc b3bd 3d36 a93c
00000370: 5bb4 7d3e b931 9fbd 83b5 a13b 0d98 cf3e
00000380: 1a1e 47bf fcd4 c43d dbb7 d23c 5af4 0a3e
00000390: 6ccc 323e 4d5d 4f3e 0bd5 c4be 5c7b 72bd
000003a0: 9d57 50be 4623 b3be 306e 54bd 2cc5 87be
000003b0: 7ee9 443f e1de 72bd 4bbd 4b3e 526a 6b3c
000003c0: 9655 c93e 514b 7cbe e8d2 ea3d dcfe 2abe
000003d0: c69e 22be 7056 bdbc 141c ee3c 82fc c43e
000003e0: fdb6 4e3d 6b59 273e 29ee 0c3d 5c93 53bd
000003f0: 1465 313d c365 253f 6d3b 86be bd4b 1d3e
0.2766452 0.21478353 0.0603323 0.1695456 -0.046246164 -0.31759515 0.35436195 0.07023073
-0.13238572 0.18478538 -0.29229146 -0.03606463 -0.17305216 0.110483825 -0.4172242 -0.23062888
0.19600312 -0.03286011 -0.058055796 -0.2215777 0.11495938 0.28870827 -0.05943188 0.38426867
0.1347478 -0.09095394 0.08246653 -0.025984788 -0.13459033 0.19601005 0.35915396 0.3604444
-0.093463354 0.1438017 -0.028477851 -0.052371632 0.12919372 -0.26433933 0.26476917 0.08550999
-0.056247793 -0.23572844 0.37492904 0.5214001 0.2844677 -0.2680394 -0.36512986 -0.13671605
0.13872345 0.009285892 -0.14819217 -0.60806584 0.22805 0.05687317 0.17533576 0.31430408
-0.18199928 0.3077132 -0.23204608 0.16776283 -0.29871014 -0.16199389 -0.00687372 0.16550538
0.29115433 0.16334073 -0.31385118 0.4038973 0.103415705 -0.12542379 0.08967897 -0.21910699
-0.3650637 0.111391604 -0.26660737 -0.070906766 0.20775314 0.19917943 0.2233961 0.32324558
-0.20632644 0.160306 0.2664396 0.083158314 0.039313186 0.22910742 0.0014234715 0.24147306
-0.14738707 0.4147852 -0.011086923 -0.59125894 -0.112637416 -0.061145417 0.13263889 -0.091244
0.21807122 0.54326206 0.34192264 0.1781901 -0.0054242956 0.062655434 0.10503529 0.338053
-0.09973994 -0.25410572 -0.21834897 -0.23403749 0.19069146 -0.1835562 0.17662187 -0.08078241
-0.11946291 -0.2768382 -0.044756986 -0.033805817 -0.26674473 0.0021373213 0.09592628 0.11599831
0.19650356 -0.028052364 0.024217462 -0.15793799 -0.025504574 -0.12103977 -0.09179034 -0.012482803
0.10933674 0.2533796 -0.21125512 0.10957595 -0.19720964 -0.488627 -0.025053382 0.022934765
-0.39164296 0.41180104 -0.32442015 -0.043804605 0.069948055 -0.088374436 0.32772127 0.08874071
-0.2393826 -0.6350387 0.12564336 -0.22864108 0.13462749 -0.07329737 0.1169584 -0.1569007
0.073999174 0.42081794 -0.34527832 0.20440665 -0.34749886 0.20895909 -0.056191396 0.13464515
0.12146862 0.04334026 -0.006778144 0.3363882 -0.16770989 0.34649402 -0.3450788 0.17903592
-0.08840093 0.41327834 0.20714554 -0.3166271 -0.6136877 0.17722976 -0.03526798 0.3633126
0.40174028 0.1341238 0.014124954 -0.014067438 -0.3114857 0.03886883 0.14630048 -0.26987886
0.17196643 0.10699231 0.28552294 0.061873868 -0.38920805 0.08765467 0.034909006 -0.21997777
0.040128436 0.55965376 0.09063786 -0.25253153 0.349535 -0.10148473 -0.30856952 -0.43775854
0.21516919 0.45560753 -0.103029385 0.23009996 -0.10997399 -0.032025512 -0.17086446 -0.08236724
-0.11826864 -0.07038169 0.050220788 0.11351898 -0.050717626 -0.41564438 -0.14708932 0.06393402
0.0040125065 -0.4664517 -0.0877931 0.020655746 0.24775831 -0.07773156 0.004934968 0.40545693
-0.77780306 0.09610936 0.025722435 0.13569775 0.17460793 0.20250435 -0.3844379 -0.059199676
-0.20345922 -0.3498785 -0.051862895 -0.26517618 0.7691878 -0.059294585 0.19896428 0.01436861
0.3932311 -0.24638106 0.114660084 -0.16698784 -0.1588088 -0.023112506 0.029066123 0.38473898
0.05046748 0.16342704 0.034406815 -0.051654205 0.043309286 0.646084 -0.26217213 0.15360923

lstm.weight_hh_l0 f4 [128, 32]
00000000: 3a6f b0bd f772 7ebd 6f5f 503e d82a 9e3e
00000010: f83c 9dbd 4f17 5f3e 5a13 6bbe 19b0 a0be
00000020: 491f 3a3e 382b d3be b877 1bbe d9ff 063e
00000030: ead5 163d dcd1 b53e 2e47 af3c da52 083e
00000040: 660d c0bd ccb6 483e 5358 b63e 2801 a33d
00000050: 64e5 81be 0222 94be e7f5 543d 71e8 593e
00000060: 4ac0 3bbd e139 993e 42d9 8f3e 5cc3 6b3e
00000070: c8a7 a6bd d8f4 aa3d 89b3 60be 2c18 9a3d
00000080: 5523 8dbd b42c 1dbe bde3 96be 71ef 2ebe
00000090: e840 223e bd27 87be 7558 8f3e ec6e a73e
000000a0: ca24 e2bd 2895 babe eddd ca3b 51d8 3dbe
000000b0: 55a3 033e a2a0 513e 4625 7ebe a8c2 533e
000000c0: c9db 633c b130 133e 572e 87bd 00cb 01be
000000d0: c81f 9b3e c6ae 7b3d 409f 9bbe d73c 20be
000000e0: a4e5 04be 3ece 81be 2681 f5bc f146 5b3e
000000f0: e519 c73c 71ab a63c 271f ca3e 63f0 833c
00000100: dd51 4e3c 0fa5 e2bd 89e7 173f 326c 023d
00000110: 459d dcbe d5c0 efbe 9385 b53c 16ad 713d
00000120: 0878 253e d579 783e 73bb 983d 44bc 1b3e
00000130: a140 efbe 22ab d1bc 685a e03e a04c de3a
00000140: cdef d2bc 0c58 dc3d 0e9e 353d 0999 3abc
00000150: 0efa 7fbe e2f9 90be ac63 22bd c6ed 333e
00000160: d95e 0c3e ac86 3c3e 0ba2 39be 10d4 8dbe
00000170: 495c 19be e6b5 993d 20a4 c63e 730c d23e
00000180: d12c 99bd d71f 303e d93d cdbd e97a d53d
00000190: e229 4bbf 2fca 5c3e a311 e83e cf1d 8bbe
000001a0: 59ed 93bd 9ddb a1be ad1c 0e3e 497a 24be
000001b0: 3d99 e33b 5c75 503d 1241 7f3d e2c5 4f3e
000001c0: 2c0d 8fbd c6cb 2ebe e0aa 613d 9ffb 92bc
000001d0: e274 e4bd 97f0 8cbe dba4 7c3e 55dd 7abe
000001e0: 3866 513e 3bca aebe 93a8 3d3e 8c65 fb3e
000001f0: 974a 7bbe 69a2 82be 290f 743e 0115 2d3c
00000200: a169 b5bd 8803 c3bd 8b73 82be c21e 933e
00000210: 5af8 19be cc6b 01bd 63b3 cabb c7a1 3d3e
00000220: 6196 a13e 01c3 6e3e aea9 40be 8443 363e
00000230: f81c 1bbd daf4 cc3e 3603 b13e d163 adbe
00000240: b854 c0be d410 2d3e 9c9f a33e 616e e6b9
00000250: 1e07 583e 94d5 ab3d f399 28be feed 45be
00000260: f57c 67be baf8 33be a9a8 243e e265 8cbe
00000270: 6b36 2c3e 99d4 34bd 3a59 6a3e 1f03 02be
00000280: 37ea f63d ca96 48be e5bd 85bd 6612 55be
00000290: b952 bebd 8a2f 2bbe 6dcc 82be d5ef 85bb
000002a0: 29a4 833e 921f 243e fda3 80be f441 41be
000002b0: 2bd5 87bc fa58 e6be 0dcd a2be 85e1 693e
000002c0: 837c 7bbe 6dce 7abd 4a5d 5e3d 3afb 96be
000002d0: 90ef 49bd f1e2 113e a25f 8d3d f6f8 3a3e
000002e0: e7ab 223e ed43 c13d 2b3b 093d eeea 233c
000002f0: 1ce2 803e 9467 9939 ffd7 1d3e 6cad 243e
00000300: d65b a5bd 18e8 15be 8956 e63d f290 bdbd
00000310: 078e 1c3d c235 bcbc bf24 c4be 5485 dabe
00000320: 4e38 14be 8647 e7be f128 903e c423 823d
00000330: f905 513e 900b fcbc 4ed5 07be 54fe d13d
00000340: d806 87be 22c2 403e a8f5 9e3e 16b8 853e
00000350: 1405 193d d480 bebe 4fe2 86bd 6d4c 7abe
00000360: 8886 413d 5a6d 843d 3934 9f3d 4683 b13d
00000370: 72d7 a83e 9774 b5be b130 873e 62fa cb3a
00000380: d0f7 05be 09ce 813e f362 ee3e 74a9 b7be
00000390: 212b 423e d350 c73e 3321 4dbc 32f9 633e
000003a0: b0aa 133b 7fd2 a5bd 8267 e5bd ae8f c93d
000003b0: 40ac a3be 3940 a13d 3fa4 f7be 827b fb3e
000003c0: 5237 a2be c97e 06bf 4859 3bbe 949a b3be
000003d0: 5fc7 c2be c149 a0be c3ed 413d c490 bd3d
000003e0: bffa febc 9f45 c9bd eedc 49be fbfb 1cbf
000003f0: a6fd 963d b3df 383e de25 82be 2c94 233e
-0.08614965 -0.062121358 0.20348905 0.30892062 -0.076776445 0.21786235 -0.22956601 -0.31384352
0.18175997 -0.4124391 -0.15182388 0.13183536 0.036825098 0.35511672 0.021396246 0.13312855
-0.093775555 0.19600981 0.3561426 0.07959205 -0.25370324 -0.28932196 0.051992323 0.21280076
-0.045837678 0.2992697 0.28095442 0.23023742 -0.081374705 0.083474815 -0.21943487 0.07524142
-0.06891505 -0.15349084 -0.29470626 -0.17083527 0.15845072 -0.26397505 0.27997175 0.32701814
-0.11042173 -0.36441922 0.0061910064 -0.1853955 0.12855275 0.20471433 -0.24818906 0.20679724
0.013907381 0.14374043 -0.066006355 -0.12675095 0.30297685 0.061445974 -0.30394936 -0.15648209
-0.12978226 -0.25352663 -0.02996881 0.21413781 0.02430434 0.020345422 0.39476892 0.016105836
0.01259276 -0.11066639 0.5933767 0.031841464 -0.43088737 -0.46826807 0.02215842 0.05900296
0.1615907 0.24265225 0.07457628 0.15208536 -0.46728995 -0.025594298 0.43818974 0.0016960092
-0.025749112 0.10758981 0.044340186 -0.0113890255 -0.24997732 -0.28315645 -0.039645836 0.17571172
0.13708057 0.18410748 -0.1812822 -0.27700853 -0.1497661 0.075053975 0.38797092 0.41025123
-0.07479251 0.17199646 -0.10021562 0.10423834 -0.79360783 0.21561502 0.45325956 -0.2717118
-0.07223005 -0.31612864 0.13878126 -0.16062273 0.0069457577 0.050893173 0.062317915 0.2029033
-0.06984934 -0.17069921 0.0550946 -0.017942248 -0.11155106 -0.27527305 0.24672262 -0.24498494
0.2044915 -0.34138665 0.18521337 0.49100912 -0.24540173 -0.25514534 0.23833908 0.01056409
-0.08858038 -0.09522158 -0.25478777 0.28734404 -0.15036145 -0.031596944 -0.0061859353 0.18518744
0.31560043 0.23316576 -0.18814728 0.17799193 -0.037869424 0.40030557 0.34572762 -0.33865216
-0.37564635 0.1690095 0.3195771 -0.00043951257 0.21096465 0.08390346 -0.16464977 -0.19329068
-0.22606261 -0.1757535 0.16079964 -0.2742148 0.16817634 -0.04414806 0.228856 -0.12696503
0.12056392 -0.19588771 -0.0653036 -0.208078 -0.09293122 -0.16717353 -0.2554659 -0.004087428
0.25711182 0.16027668 -0.25125113 -0.18872815 -0.016581139 -0.4498976 -0.31797066 0.22839935
-0.24559216 -0.06123202 0.054288186 -0.29488546 -0.04930073 0.14246728 0.06903006 0.18259034
0.15885888 0.09436784 0.033503693 0.010004742 0.25172508 0.00029259606 0.15414427 0.1608178
-0.08074157 -0.14639318 0.11246974 -0.09256162 0.038221385 -0.022974852 -0.38309285 -0.42679846
-0.14474604 -0.45171756 0.28156236 0.06354478 0.20412435 -0.030767232 -0.13264963 0.10253587
-0.2637241 0.18824056 0.31046796 0.2611701 0.03735836 -0.37207663 -0.06586134 -0.24443217
0.04724744 0.0646617 0.077736326 0.086676165 0.32976872 -0.35440513 0.26404336 0.0015562291
-0.13082814 0.25352505 0.46559867 -0.3587147 0.18961765 0.3892885 -0.012520122 0.22263029
0.0022532158 -0.080967896 -0.11201383 0.09841858 -0.31967354 0.078735776 -0.48367497 0.49117666
-0.3168283 -0.5253721 -0.18295777 -0.3507887 -0.38042733 -0.3130627 0.047345888 0.092561275
-0.031125424 -0.09827732 -0.19713184 -0.6132199 0.07372598 0.18054084 -0.25419515 0.15974492

lstm.bias_ih_l0 f4 [128]
00000000: 3990 8a3d 4c8a 2ebe 0b15 373c 9686 6b3d
00000010: 0699 3e3e fed2 c73d fe72 eabc 4245 d2bd
00000020: b409 10bc a0ed 4ebe ec50 c5ba 6397 af3d
00000030: b81e 44be 489e 1dbd 6895 6c3d bf43 5fbe
00000040: 64a2 7b3c faf4 e23d 8923 753e 4d96 f53d
00000050: 3472 f9bc 1da2 1a3c 1a4e 1c3e 233a 0d3e
00000060: 9285 4d3e 9503 303c ac95 29bd 5927 c03d
00000070: 2297 b7bd ecd3 383e 54db 3c3d ab3e 263d
00000080: e513 3bbc db7f 0ebe 4353 aa3c ccf8 15bc
00000090: 45af 92bd e8a0 e03c 8927 053e fa09 d43d
000000a0: 68a0 0fbd b40f babd 8275 f73d 230c 283e
000000b0: b6aa 133e ca54 cd3c dd93 5abd 0437 17be
000000c0: 0fad 7bbc 8356 66bd cb3c 223e 3860 353d
000000d0: c5a6 283e 9785 cf3c ff09 103e 2b5e 883d
000000e0: 422c 143e f5a4 26bd 7e03 363e d265 bd3d
000000f0: d2e8 ea3d eefc 0d3d a433 413e 1dd8 8fbc
00000100: 7bf9 343e 5858 5d3c 2371 a53d 9152 793d
00000110: bf01 503e 326e bb3c 1665 093e a6a2 0fbd
00000120: cd24 8b3c d044 9c3d a837 64bd b7d7 b0bd
00000130: e2c1 42bc f9f3 07be 258a 0a3e 1726 d83d
00000140: a6b4 b33d b909 3a3d 8556 22bd ca59 803d
00000150: da22 f23d ee47 2a3e 4c50 fa3d 11b5 8f3c
00000160: 0f21 913d d45d e73d aeea 143e 0409 9ebd
00000170: 1215 393e 95db 293e d037 7fbd fed6 1fbe
00000180: 78eb 513d dcaa 223e 4062 863a e8be 833e
00000190: b0eb a13e 3fd0 82bc a223 323e 960a b33d
000001a0: 1ef3 4abd 0109 13bd d20f 623e 05b5 05bd
000001b0: 5d08 3a3e 3f2f 033e 46e2 973c 6ddd bfbd
000001c0: 4641 c03d c460 b73d 0367 923e 7a3b 6d3e
000001d0: 6b0f 79bd 8ef8 903e f773 973d 6daf ba3d
000001e0: f5ee 0c3e 7a65 083e 2a65 18bd 1f12 c5bc
000001f0: 87db 5dbd 7741 753e e3bc 413e fcc4 693e
0.067657895 -0.17044944 0.011174451 0.057501398 0.18613061 0.097570404 -0.028619286 -0.10267116
-0.008791376 -0.20207834 -0.0015054024 0.085737966 -0.19152343 -0.038481027 0.057759672 -0.21803187
0.015358541 0.11081882 0.23939337 0.11991558 -0.030449964 0.009438065 0.15264168 0.13791709
0.20070484 0.0107430415 -0.041402504 0.09382505 -0.08964373 0.18049592 0.046107605 0.04058711
-0.011418317 -0.1391596 0.020791655 -0.009153556 -0.07162336 0.027420476 0.13003363 0.103534654
-0.035065085 -0.090850264 0.1208296 0.1641088 0.1442059 0.025064845 -0.05336367 -0.1476708
-0.015361085 -0.056234848 0.15843503 0.044281214 0.16469868 0.025332255 0.14066313 0.06658586
0.14470008 -0.04068466 0.1777477 0.09247936 0.11470188 0.03466504 0.18867356 -0.017559106
0.17673294 0.013509832 0.0807822 0.060869757 0.20313166 0.022879694 0.13417467 -0.035067223
0.016985321 0.076303124 -0.05571714 -0.08634894 -0.011887046 -0.13276662 0.1352926 0.1055414
0.0877469 0.04541943 -0.039633293 0.06267126 0.11823054 0.16629001 0.12222347 0.017542394
0.070863836 0.11297193 0.14542648 -0.07716563 0.18074444 0.1658767 -0.062309086 -0.15609357
0.05124995 0.1588549 0.001025267 0.25731587 0.31625128 -0.01596844 0.17396405 0.087422535
-0.04954826 -0.03589726 0.22076347 -0.032643337 0.18167253 0.12810992 0.018540513 -0.093684055
0.0938745 0.089540035 0.28594217 0.2316722 -0.06080572 0.28314632 0.073951654 0.09115491
0.1376303 0.1331996 -0.037205853 -0.024056492 -0.054164436 0.23950754 0.18919711 0.2282905

lstm.bias_hh_l0 f4 [128]
00000000: f8b0 44be f6c7 6ebd 40fc 3b3e e8e1 68be
00000010: 410c 893d 50b1 0cbd 403c 393d 09cd bc3c
00000020: 4a3d 50bd 7c91 c3bc 01c8 dbbd 64f6 e3bd
00000030: 7c98 653d 5712 ff3d 5730 b73d b59c 823d
00000040: a506 103b ea9b b1bd 96d5 613e 2cf3 5fbd
00000050: 6d7f 343e 615f 733d aa60 74bc cfda 94bc
00000060: 33cf c3bd 49d6 113e 93f4 063d ae07 753d
00000070: 4858 d7bd 426d 473d 1de2 52be 839c 28be
00000080: d885 a7bb 34d1 4c3d 204f 003e 3c13 7dbd
00000090: abfd 1b3d 5214 053e 6375 1ebd 5ace 67bc
000000a0: 3033 a33d b83d b8bd c24c 423e f68d 713e
000000b0: d0c5 2e3c 7bf2 c73d d7d4 f3bb ba77 423b
000000c0: 1108 6b3e bd2e d7bd d911 a23d d6d8 373e
000000d0: 583a 62bd 874e 7e3e bab6 c3bd 5dec ee3d
000000e0: 8e93 d0bd 09cc 3c3d 2bf8 683e 84f1 643d
000000f0: 8d0f d0bb 4154 9f3b b7d1 11bd 9434 f33d
00000100: a643 d7bd 5435 b93d cb52 923d 0a82 9fbc
00000110: 69a9 f73d b900 06be cbb1 2bbe 448d 00be
00000120: 1669 ab3d 0c94 7a3d 8c90 a13d a45d 883d
00000130: cfaa cabd bd0b 12be 0f81 94bd 4976 0b3d
00000140: 7063 923d ad03 e4bb 0948 003e 2656 2f3d
00000150: ec64 cbbd a322 243d 5a67 783d 9cb2 893d
00000160: c0a2 dbbc d188 b53d ba91 243e 3599 db3d
00000170: 4894 30bd 538d 75bd 4270 c9bc 7c27 783d
00000180: 0e14 373e 9844 593d 5f42 4c3e 5db5 803d
00000190: 3671 a93e e55b 0d3e 3983 6f3e 0ef9 ba3b
000001a0: 5c87 d33c acf6 7b3e d947 123e dd0f fe3d
000001b0: 27e8 5d3e 4ba8 6d3e b170 7a3e e0cf 10bd
000001c0: cb17 6d3d acb9 543e 5e34 b23e 31ea f5bc
000001d0: 11c6 983d e696 773e 30c5 043e d41a 3a3d
000001e0: bd0c 683e 6132 ae3c 0365 4c3e b8e3 3f3e
000001f0: 0598 81bd 8abb 033f d8ec 8e3e 7be7 973e
-0.19208133 -0.058296166 0.18357944 -0.22742426 0.0669179 -0.034348786 0.045223475 0.023046987
-0.0508397 -0.023873083 -0.10731507 -0.1113098 0.056053624 0.1245467 0.08944767 0.06377546
0.0021976617 -0.08672316 0.22054133 -0.054675266 0.17626734 0.059417132 -0.014915625 -0.018170742
-0.095610045 0.142419 0.032948088 0.059821777 -0.10514885 0.04868818 -0.20594068 -0.16465954
-0.005112391 0.0500042 0.12530184 -0.06178592 0.038083714 0.12996033 -0.038686167 -0.014148319
0.079687476 -0.08996147 0.18974593 0.2358931 0.010667279 0.09763046 -0.007441144 0.0029673413
0.22952296 -0.105069615 0.079135604 0.1795381 -0.055231422 0.24834643 -0.09556337 0.116661765
-0.10184394 0.04609302 0.22750919 0.05589439 -0.00634951 0.004862339 -0.03560039 0.11875263
-0.1051095 0.09043375 0.07144698 -0.019471187 0.12092859 -0.13086213 -0.16767041 -0.12553889
0.08369653 0.061176345 0.07888898 0.066584855 -0.098958604 -0.1426229 -0.072511785 0.034048352
0.071478724 -0.006958446 0.12527479 0.042806767 -0.09931359 0.040072095 0.06064544 0.0672352
-0.026811004 0.08863986 0.16071215 0.10722581 -0.043110162 -0.05994923 -0.024589662 0.06058453
0.17878744 0.05304393 0.19947194 0.06284592 0.33094186 0.13804586 0.23389901 0.005705959
0.02582138 0.24605817 0.1428522 0.124053694 0.2167059 0.2320873 0.24457051 -0.035354495
0.05788402 0.20773953 0.34805578 -0.030018898 0.07459653 0.24178657 0.12965846 0.04543574
0.2266111 0.021264257 0.19960408 0.18739212 -0.063278235 0.51458037 0.27915072 0.29668793

lstm.weight_ih_l0_reverse f4 [128, 50]
00000000: d4ab a73e 4279 5cbe 3132 9ebe 5560 573e
00000010: 27cc f0bd d7d1 8a3e ff4e f83d 7a9c f93c
00000020: e4b1 debd 8bfe 073e 46f5 243e b79d 85be
00000030: 0c5d 36be 5977 363e b1f5 4e3e 4d24 db3e
00000040: 4d65 1dbe 0b1f 8bbd ed84 b7be 6749 ddbe
00000050: 054f 33be 299f 453e 0605 823d 6451 d93e
00000060: 1b84 82be 6366 833e 706f 1d3e db74 0bbe
00000070: 5bbe 4a3d 53f4 ca3e ed5e 94be e415 623e
00000080: 03f8 863e 4f37 d4be 7512 f5bd 6935 f43c
00000090: cbf9 8dbc b9a4 cf3e 5a18 74be 62ea 663e
000000a0: 67c2 8a3e 41e0 f2bd 33a7 5c3e e87a 80bd
000000b0: e0b2 83be c1fc b7be 9ae6 913e b8ea ff3e
000000c0: 6f3b a73d 75b6 02be a5ed 7c3e 286b 6fbd
000000d0: 3786 3bbb 18aa ad3e b145 dbbe 185e a23e
000000e0: b39f 693d 28b6 3b3e ddcc 35bd fa30 78be
000000f0: aca3 3fbb 0a6d 46be cee1 3cbe c735 75be
00000100: 9d17 1ebe 0441 56bd 64ca f7be 09e6 ac3e
00000110: 37a0 c83c aff6 a4be 581d 88be 2640 943d
00000120: 47ba dd3e d9b5 cd3e 5956 873d e665 573e
00000130: 50e5 043d 20ba 03bd 99d2 90bd ca24 bb3e
00000140: 829b efbe 1382 033c 42db 02bd 280f 93be
00000150: 9ebb e2bd 0cd0 023c 9f80 1abe 5ccb 28be
00000160: 6e3e 8bbd 3dfa 2dbb 88ad e93c 181e 30be
00000170: f1c7 123d c4e1 b4be 749b d7be d873 cabd
00000180: 8202 a6be ca48 4b3e 1877 a5bd c9e9 083e
00000190: f2f0 d5bc 8ee5 85bd d5aa 663d 21dd 8b3d
000001a0: e193 a53e 0b05 133e 5c66 843e 07cb 123c
000001b0: 0934 8cbe 2e7f 3f3e bd39 503e 697f 02be
000001c0: 986a 043e fbba be3d 444c 183e 3bcd bf3e
000001d0: b91b 8d3c 1d63 8cbd d57b 1a3e 5dae 72be
000001e0: 6a1e b73e 6da3 b2bb 9947 743d 556d 30bd
000001f0: e837 1d3d fea2 8fbd e790 59be 368b 19bd
00000200: b6a9 01be ea59 383e 79c1 85bd ec23 023d
00000210: f5b0 403c ec21 5fbe 85ac 553e 46f3 223e
00000220: 2550 1a3e 29df 68be fa23 cfbe 0176 76be
00000230: 0ae4 bd3d a517 87be c5ec 2f3e 3bf5 893c
00000240: 7845 963e 42c4 a4be d2f0 e83d 33b3 25be
00000250: 97d7 733e 8e7d f6bc 0df6 c53e 3e06 a2be
00000260: 553b 40be 1a33 ab3c fc8e 92be e0cf 09be
00000270: 3bea 26be 048a 42be 0ac3 783e c394 48be
00000280: a12f 133e 05dc 793e f9d5 e4bd 6bdb ddbd
00000290: edc2 833e a702 5fbe 87f2 e13d 6d5a fbbd
000002a0: 5b67 913b 49e7 8b3e 871b 9e3e c3e2 ac3e
000002b0: 4f50 d5bd 339c 9b3c abaa 273e cd17 8d3d
000002c0: 2894 663e b6e5 a1be 7f0b e13d 33aa 813e
000002d0: 4f6b 93be dfe7 213e 6bf6 eabe 1ef2 e2be
000002e0: e3fa 9fbc 86d7 4c3d 8fee a4be 33bd 093e
000002f0: 5f22 6bbd bff1 153d decf 573d 696e 87be
00000300: bbda 36be 5854 9d3e b1c7 9a3b 99a4 943d
00000310: 00ff ad3e a9ce dabd 3454 19bf efc9 06bf
00000320: c691 21be eb30 f53d 4927 c03d 0c52 04be
00000330: 10ed 28be 5f74 0d3d 4ae8 803d 1409 4a3c
00000340: e74a 283d 05e5 2c3d e204 50bd 3162 61be
00000350: 5c62 203e 71ca 24be 87d5 95be 86be f2bd
00000360: 9775 3fbc 9085 22bc 8ce6 36be c89b 11bf
00000370: 6121 643d 818a 4a3d c9d6 4b3e f1e8 813e
00000380: a6bc 01bf 81c5 e13d 98fa b9be 52f4 2e3e
00000390: 89cb d3be 9653 ddbd 864d 53be 9775 2a3e
000003a0: 0cc3 0f3e df4e 6fbd 8544 27be a650 193d
000003b0: df1d e8bd f6f8 5dbe d62c 1e3e 5f5f 1bbe
000003c0: a6c7 523e e3a8 3cbe a99b 1bbe e75e 3c3e
000003d0: 534e a93e 749a bfbe 4333 f1bd 09f7 f73e
000003e0: ad41 f5bd 4bf8 903e 6b82 2bbe b686 fe3e
000003f0: 04ec a23e fd38 66be 83a1 6b3e ac5b c83d
0.32748282 -0.21530631 -0.30897668 0.21032842 -0.11757689 0.2711322 0.12124442 0.030470122
-0.10873774 0.13280694 0.1610919 -0.2609689 -0.17808932 0.17818965 0.20210911 0.42801133
-0.15370674 -0.0679303 -0.35843602 -0.43220064 -0.17510612 0.19298996 0.063486144 0.4244491
-0.25491413 0.25664052 0.15374541 -0.13618796 0.049497943 0.3963953 -0.28978673 0.22078663
0.26361093 -0.41448447 -0.11966411 0.029810624 -0.017331025 0.4055536 -0.23837414 0.22550347
0.27101442 -0.11859179 0.21548156 -0.062734425 -0.25722408 -0.35935023 0.28496248 0.49983764
0.08165633 -0.12764914 0.24700029 -0.0584518 -0.0028613934 0.33918834 -0.42826608 0.31712413
0.057037067 0.18331206 -0.044384826 -0.24237433 -0.0029241843 -0.19377533 -0.18445513 -0.23946296
-0.15438695 -0.052308097 -0.483966 0.33769253 0.024490459 -0.32219455 -0.26584888 0.07238798
0.4330618 0.401778 0.066082664 0.21034965 0.032445252 -0.032159925 -0.07071418 0.36551505
-0.4679833 0.008026618 -0.03194738 -0.287225 -0.110709414 0.007984173 -0.15088128 -0.16483825
-0.06799017 -0.0026546859 0.028525129 -0.1719898 0.03583521 -0.35328496 -0.4211079 -0.09885377
-0.32423788 0.19851986 -0.08079356 0.13370432 -0.026115868 -0.06537925 0.056315262 0.06829286
0.32339385 0.14357392 0.25859344 0.008959538 -0.2738345 0.18700859 0.20334525 -0.12743916
0.12931287 0.093130074 0.14872843 0.37461266 0.017225133 -0.06854842 0.150863 -0.23699327
0.35765392 -0.005451611 0.059638593 -0.043073017 0.038383394 -0.0701351 -0.21246682 -0.037486278
-0.12662396 0.1800305 -0.065310426 0.03177254 0.01176094 -0.21790284 0.20866592 0.15913114
0.15069635 -0.22741379 -0.40457135 -0.24068452 0.092720106 -0.26385227 0.17180164 0.016840568
0.29349875 -0.32180983 0.11374058 -0.1618164 0.2381271 -0.030089166 0.38664284 -0.31645387
-0.18772633 0.02089839 -0.28624713 -0.13458204 -0.1630029 -0.18997961 0.24293151 -0.19587998
0.14373638 0.24400337 -0.111736245 -0.10832866 0.25734654 -0.21778356 0.110325865 -0.12273107
0.0044373698 0.27324894 0.30880377 0.33766755 -0.10415708 0.01899538 0.16373698 0.06889305
0.22517455 -0.31620568 0.10988521 0.25325164 -0.28792807 0.15811108 -0.45891127 -0.44325346
-0.019528812 0.050010227 -0.32213256 0.1345108 -0.057405826 0.0366075 0.052688472 -0.26451424
-0.17856877 0.30728412 0.004723512 0.07257957 0.33983612 -0.106839485 -0.5989411 -0.52651876
-0.15778264 0.11972221 0.09382493 -0.12921923 -0.16496682 0.03453481 0.062943056 0.012331266
0.041087057 0.042210598 -0.050785907 -0.22010113 0.15662521 -0.1609285 -0.2926447 -0.11852746
-0.01168575 -0.009919539 -0.17861384 -0.5687833 0.055695895 0.049448494 0.19906153 0.25373033
-0.5067848 0.11023999 -0.36324 0.17085388 -0.41366223 -0.108069584 -0.20635042 0.1664642
0.14039248 -0.058424827 -0.16334732 0.037430428 -0.113338225 -0.21677002 0.15446791 -0.151731
0.20583972 -0.184238 -0.15196098 0.18395577 0.3306757 -0.37422526 -0.117773555 0.4843066
-0.11975417 0.28314433 -0.1674897 0.4971215 0.3182069 -0.22482677 0.2301083 0.0978311

lstm.weight_hh_l0_reverse f4 [128, 32]
00000000: f2f8 d43c f56d 873d 82eb 19be 11f9 4a3e
00000010: 7b52 46be efcc 44be a418 0b3e fd83 583d
00000020: 9b71 e0bc 9b81 943e 7c1d 973e 6b9c 183e
00000030: 471d efbd 4957 02bf a3b5 24be 9502 193e
00000040: 1df4 8f3d 1cbf 013e 32e4 053c 69c3 643e
00000050: 09b5 67be e058 06be 1adf ae3d 6094 1a3d
00000060: f3bf 98be c7ca 343d cab8 23be 6122 6bbe
00000070: fe11 9ebd 03a4 873d 898e 0d3e 32d3 e0bb
00000080: a78a 643e 5f0a 15be b73d 483c 2467 4e3e
00000090: 5b6a 763d ea19 953e c9b8 d63d 6669 053e
000000a0: 2d82 863e d6d3 ef3c 3b74 83be cea2 213d
000000b0: 2674 f4be ae48 223e 79f0 ddbd 193d 1f3e
000000c0: 1dbd ea3c bae3 daba 1e16 e2bd 0acf 88bd
000000d0: 84d4 c8be 54bd 773d a50d 4cbe 0aa3 2ebd
000000e0: e8b8 a1bc 512f 443d a13f 90bd ae89 c3be
000000f0: b55f d23d c788 b73c fcd0 cc3c dba6 cdbc
00000100: d995 90bc a5b6 37be 66d7 aabe f3cb edbe
00000110: a54c 37bc 3970 d6bc c13f 6a3d fbdf 643e
00000120: 23f8 483e 59b8 83be 1473 41be bf6c 8d3e
00000130: f288 0fbe 7ead 44be 56ab a0be 90a7 1c3d
00000140: 85ad eabd f667 ca3d eedc abbe 0ab5 75be
00000150: 8983 b3be aabc 72bc 69ef b9bd 4b9e 683e
00000160: 181a 84be ab09 c0be 08fb 4e3d 42f5 f0be
00000170: 5a15 8f3d 2fe2 543e 61e5 943d 115a efbd
00000180: f532 b3bd 8d6f 74be 3a39 043e 01d3 973e
00000190: 8f7b 753d a70d e7be dc83 83bd 5945 603e
000001a0: 5e5d 40be 9686 94bd 78b8 8b3e 0d9a 963c
000001b0: 9204 ad3e eb42 f13d 0881 07bd 2409 01be
000001c0: 68df 2dbe 6e77 0bbe f1d0 df3d 8cc0 b93c
000001d0: 37f1 9bbe e952 52bc b804 38bd 9c1f 6dbe
000001e0: eaa4 0c3e 260b 273e 5adc 0b3e 9f8d ac3e
000001f0: 1419 f6bd c9ab 7e3e 7a19 f3bd 606e 6ebd
00000200: ea9c 0bbe c1e5 a43e a76f 22bd 9ba2 743d
00000210: 7b7d 27be c112 83be 9cad 59be 4143 8ebe
00000220: 0c84 d53e 05ed 14be 69aa 1a3e e5f6 b43e
00000230: b467 ef3d 09e9 09be 756f bbbe be17 923c
00000240: 9d24 373d 98d1 1dbe b78e 49be 9340 e7bc
00000250: 9708 d3bc 668e 0e3d 4452 8a3d 949d 293d
00000260: 89d2 8fbc 63a1 17bf 453f 15bd 7bc2 74be
00000270: 1056 0d3e d23e 93bd 34b4 83bc 161e 703e
00000280: 9894 103d dc0c 8a3e 7e70 49be d3d9 c33c
00000290: 31d2 8f3e 6dc4 81bd f664 1c3e 13ef 853d
000002a0: a69b 35be de80 1b3e e7a0 17bf fd83 01be
000002b0: 8922 ff3d 3d2e 20bd d5a5 db3d 665e 9f3c
000002c0: de1f a9bd 6c2a 393e 205a c2bd e8b9 373d
000002d0: 1b6a 91bc 3d22 72bd b87b ef3d 5a06 a03e
000002e0: 3fc0 393e d451 eebe bc81 373d d814 d13e
000002f0: b875 dd3d 381c 31be c73c 41be 057d 393d
00000300: 3bb3 763e 50ca 263b ab9b 22be 62c1 ff3c
00000310: f56f 2a3e d896 20be ec88 aa3c 76f5 ab3d
00000320: 9b34 a5bb ecba 553d dc43 d43b 714a 083e
00000330: 3d6e 18bd 68e7 023e 44cf 47be 0bac 4f3d
00000340: 5230 243e d26e cebd 40b9 1bbe 3eac ccb8
00000350: cc05 933d 4d05 023d c629 5f3d 897d 1d3e
00000360: 4461 ab3d 732d f6be 2adf a33d 574f 343e
00000370: 5625 d8bd 58ac 58be 4f36 8a3d f7e7 aabd
00000380: 15dd 28be ecfb 863e f8cf ea3c f11e 053d
00000390: 3966 f4bd 263f d93d 3c46 6fbd c82b 48be
000003a0: 13f8 35bd 5483 9dbe 79f1 90bd fa06 dd3e
000003b0: d661 443d 6110 afbe fb5a 74be 7007 0a3e
000003c0: c567 1f3e 8181 603e 5f5a 743e 4341 59be
000003d0: b4e4 c2be 26b3 69bd 3982 89bd 43d4 d43c
000003e0: 81ad b1be 1374 1a3d 926b a23d 572e a6be
000003f0: c3da 9d3d b2ab 3d3e cc61 cc3d d205 02bd
0.025997613 0.066127695 -0.15031245 0.19821574 -0.19367401 -0.19218801 0.13583618 0.05286025
-0.027397921 0.2900513 0.29514682 0.14903419 -0.11675506 -0.50914437 -0.16084914 0.14942391
0.07028983 0.12670559 0.008172082 0.22340168 -0.22627653 -0.1311984 0.08538647 0.037739158
-0.29833946 0.044138696 -0.1598846 -0.22962333 -0.077182755 0.0662308 0.13823904 -0.006861114
0.22318517 -0.14554738 0.012221745 0.20156533 0.060160022 0.29121333 0.10484464 0.13028488
0.2627119 0.029275816 -0.25674614 0.039461903 -0.47744864 0.15848038 -0.10836882 0.1555065
0.02865463 -0.0016699948 -0.11039375 -0.066801146 -0.39224637 0.06048329 -0.1992708 -0.042635955
-0.01974149 0.047896687 -0.07043386 -0.3819098 0.10272161 0.022404088 0.025001995 -0.025103977
-0.017649578 -0.17940767 -0.3336746 -0.46444663 -0.011187707 -0.026176559 0.057189707 0.22351067
0.19625907 -0.25726584 -0.18891555 0.2762203 -0.14017084 -0.19206807 -0.3138072 0.038245738
-0.114588775 0.0988311 -0.33566993 -0.23994842 -0.3506129 -0.014815489 -0.09078867 0.22716634
-0.25801158 -0.37507376 0.05053237 -0.47062117 0.06986494 0.20789407 0.07270313 -0.11687101
-0.08749954 -0.23870678 0.12912455 0.2965317 0.059932288 -0.45127603 -0.064216346 0.21901454
-0.18785617 -0.07252233 0.27289176 0.018384004 0.3379255 0.11780342 -0.03308204 -0.12601143
-0.16979754 -0.13619778 0.10928524 0.022674821 -0.3045747 -0.01283715 -0.044926375 -0.2315659
0.13734785 0.16312847 0.13658276 0.33701798 -0.12016502 0.24870218 -0.11870094 -0.05821073
-0.13634077 0.32206538 -0.03965726 0.059725385 -0.16356461 -0.25600246 -0.21257633 -0.27785686
0.41702306 -0.14543541 0.15104069 0.35344616 0.11689702 -0.13467802 -0.36608472 0.017833587
0.04471265 -0.15411985 -0.19683348 -0.028229034 -0.025760932 0.03480377 0.06753972 0.041410044
-0.017556446 -0.5923063 -0.03643729 -0.23902313 0.13802361 -0.071897164 -0.016077138 0.23448977
0.03529796 0.26962936 -0.19671819 0.023907578 0.2809005 -0.06336293 0.15272889 0.065397404
-0.17735156 0.15185878 -0.5922989 -0.12648006 0.12457759 -0.039106596 0.10724989 0.019454192
-0.08258031 0.18082589 -0.09489846 0.04485503 -0.01775079 -0.059114683 0.11693519 0.31254846
0.18139742 -0.46546805 0.04480146 0.40836215 0.10813469 -0.17295921 -0.18870841 0.045285244
0.24091808 0.0025450177 -0.15879695 0.031220142 0.1664427 -0.15682542 0.020817243 0.08396427
-0.0050416715 0.052180216 0.006477816 0.13309647 -0.037214506 0.12783587 -0.1951266 0.050701182
0.16034058 -0.10079731 -0.15207386 -9.7595606e-05 0.0717884 0.031743336 0.054483198 0.15379919
0.08368161 -0.4808155 0.080015495 0.17608391 -0.10553996 -0.21159494 0.0674864 -0.08345025
-0.16490586 0.26364076 0.02866362 0.03250021 -0.1193356 0.10607748 -0.05841659 -0.19547951
-0.044426035 -0.30764258 -0.07077307 0.43169385 0.047944866 -0.34192184 -0.23862831 0.134794
0.15566929 0.21924402 0.23862599 -0.21216302 -0.38065112 -0.057055615 -0.06714291 0.02598012
-0.34702685 0.037708353 0.07930674 -0.3245723 0.07707741 0.18522528 0.09979591 -0.031743832

lstm.bias_ih_l0_reverse f4 [128]
00000000: c4a1 95bd f5df 1dbe c687 a03d 8656 f7bd
00000010: 0eec 9d3d 4f60 393d 9853 433d 40c6 47be
00000020: c092 2e3d 3acc 85bc 0143 a13d 7404 ac3d
00000030: ea79 f5bc de70 353e b4a0 09be bd9e 47be
00000040: b539 f13d 2928 ccbd 1be3 763d 33cd c83d
00000050: 79b8 883d 8418 903d 0fea e5bd 9e8b 9fbd
00000060: 1f34 f33d 405d 34bc 44b4 013e 0b0a a53d
00000070: d2de 78bd 6186 7dbd f222 00bd 13e4 b23d
00000080: 1a92 f33d 0533 6c3c e3f3 3cbc e749 923d
00000090: 4a69 303e 2688 08bd cfc0 fc3d 03c6 473e
000000a0: 555d 7c3e a6a4 6c3e 3410 153e bdbb 413e
000000b0: 8ae1 4cbc 6807 8a3d e920 393e f1b6 0abd
000000c0: b1c7 893e faba 6d3c fa27 15be 380a 6d3d
000000d0: 4698 9c3c 94bf 8c3e 3c4d 4e3e 85fe c23c
000000e0: c9f0 2d3e bd5c b7bc e836 803c 353c ab3c
000000f0: 68f0 1d3e 1c6a 77bd 4d8a adbc d3ce ca3d
00000100: 29a0 023e c462 2fbc 41e6 f23d 799a b93d
00000110: 6994 3b3d b653 f53c 15cf 063e f9af e23d
00000120: 7fda 01bd c97e ecbd 310b 1cbe a123 97bd
00000130: 5349 a53d ffdc 093e b2f6 8b3d 284e 1fbe
00000140: ff07 c83c 3712 ac3d bc11 3e3d 0db7 9dbd
00000150: 0229 a9bd ea75 3c38 f9a5 e73d ab23 2d3c
00000160: eaaa e43c a793 37bd b63f a23d 5f82 c8bd
00000170: 87dc e73d d178 d7bd 6f86 cd3d 2cd5 72bd
00000180: 6c65 943d f3a6 c33d 2b29 dd3d e2fb 4abc
00000190: 7f0a 483e 57de 783e b818 41bd 7df5 cf3d
000001a0: 2776 633e 7f42 7f3e 5a77 d73d 6d59 053e
000001b0: 4a22 1cbd 6566 5b3e 06c6 d63d cb6c 0a3e
000001c0: 942e 693e 4722 303e fb0a 0ebd 7469 513b
000001d0: a716 4e3e 3732 7bbb c179 a53d 7dee 273e
000001e0: a774 88bd 6a98 7f3c d67f d5bd 0634 ce3d
000001f0: 1f03 283e f9a3 363e e6bf 9ebd ed2e 823b
-0.07306245 -0.15417464 0.07838397 -0.1207705 0.077110395 0.045257863 0.047687143 -0.1950922
0.04262042 -0.016332734 0.07874108 0.08399287 -0.02996536 0.17718837 -0.1344021 -0.19494148
0.11778585 -0.099685974 0.06027518 0.09804764 0.0667581 0.07035926 -0.11226284 -0.07790302
0.11875176 -0.011008561 0.12666422 0.08058556 -0.060759373 -0.06189573 -0.031283326 0.08734908
0.11893101 0.014416461 -0.0115327565 0.07143002 0.17227665 -0.033332966 0.12341463 0.19509129
0.24644978 0.23109683 0.14556962 0.18919273 -0.012504945 0.06739694 0.1807896 -0.033865873
0.26910165 0.014509911 -0.14566031 0.057871073 0.019115578 0.27489913 0.2014665 0.023803005
0.16986383 -0.022383088 0.015651181 0.020902732 0.15423739 -0.06040393 -0.021184111 0.0990273
0.12756409 -0.0107047 0.11860324 0.090626664 0.04579583 0.029947143 0.13164933 0.1106872
-0.031702515 -0.1154762 -0.15238644 -0.073798425 0.08070626 0.1346321 0.06834163 -0.15557158
0.024417875 0.08401912 0.04640363 -0.0770093 -0.08259775 4.493251e-05 0.11310954 0.010567586
0.02791353 -0.044818547 0.07922308 -0.09790491 0.11321359 -0.10521091 0.10035407 -0.059285328
0.07245907 0.095533274 0.10798868 -0.012389155 0.19535254 0.24303566 -0.047142714 0.10154245
0.2221304 0.2492771 0.105208114 0.13022394 -0.038118638 0.21425779 0.10486989 0.13518064
0.22771674 0.17200576 -0.03467844 0.0031953724 0.20125829 -0.003832949 0.08079863 0.1639957
-0.06662875 0.015600303 -0.104247734 0.100685164 0.1640744 0.17835988 -0.077514455 0.003972879

lstm.bias_hh_l0_reverse f4 [128]
00000000: 486a debd 7a93 003e 6697 743d 0f7e a8bd
00000010: 1c26 043d 89fa 213e 4d90 b53d 9a3c 403c
00000020: 7e6b 273e a49a aa3b 2be8 613d c17d 853d
00000030: ca4a a3bd a607 7dbc 820a 27be 2f66 75be
00000040: bf0d 603e 511c 07be 714b 2ebe d410 85bd
00000050: 32a8 fe3b 633e d53d 18e4 3a3e 3bd7 033e
00000060: de1e 003e 9f6a 1c3e c881 013e 3b5e 863d
00000070: f158 cf3d 4766 33be 0124 d9bc 626d 06be
00000080: 1967 673e 9478 c7bd 0c79 4e3d e6de c7bd
00000090: 5f40 283e daa5 0abd e964 f23d 0ab0 973e
000000a0: ce5a a3bd 3235 213c 9c49 d5bb ddde ee3d
000000b0: cd4e 733e 3953 9d3c 726c 20bd 3e5d 003e
000000c0: 9f1a 6a3b ae81 ce3d e13d 92bc 0e8c 2a3e
000000d0: de26 c83d a66e 853d 6318 25bd 6127 b6bd
000000e0: ed87 30bc 0d6a f9bc 2464 873d 4777 813e
000000f0: 0c32 083e 9c9f 023e 4b6a 2ebb 04b7 9bbd
00000100: 58ab 59bd 4eb1 d5bd 7164 2c3e 6c40 f43d
00000110: 3001 a4bc ca0e 043e 630a a7bd eab7 013d
00000120: 039d 05be 00ec 463e df4a c8bd e490 6b3b
00000130: 62f0 c53d 35bf 98bd 0fb0 c63d 258a 3cbe
00000140: 4fc2 4f3e b909 aabc 13a8 3cbd 6af5 4bbd
00000150: 28a2 383e 9d1f b63d 5e44 12bd 42fc abbd
00000160: 8408 0fbd 3450 083e 77ee 773d 3b1a d03d
00000170: 8b8b b3bd 5c5f 3c3d a09f 973c 8bb7 78bd
00000180: 71e9 6d3e fe5a d6ba a5f8 0c3e 3b89 143e
00000190: fc27 64bc 1d87 9e3e 6ec2 00be 8f82 143e
000001a0: fc3f 533e 12fb 86bd 216a 1b3e 90b8 0ebd
000001b0: 571d a33d 9f5c 183e 2d38 cdbc b48e 2cbc
000001c0: 3a96 2a3e 4349 1b3e aa48 b9bc a7db bd3d
000001d0: 05d5 643e 95ee 4dbd 7c64 203e f51d 193e
000001e0: 8d6b 203e d5ec 323e c571 15bd 57aa 043e
000001f0: a733 2f3d d8bb 0f3e d220 893c ab57 3b3d
-0.10860115 0.12556258 0.059714697 -0.08227169 0.032262906 0.15818228 0.08865414 0.011733199
0.16349599 0.005206423 0.055153053 0.06518126 -0.07973249 -0.015443718 -0.16312602 -0.23964761
0.21880244 -0.13194396 -0.17020966 -0.0649735 0.0077715153 0.1041229 0.18251073 0.12875073
0.12511775 0.15275048 0.12647164 0.06560942 0.10124386 -0.17519484 -0.026506426 -0.13127664
0.22597922 -0.09739795 0.050408408 -0.097593114 0.16430806 -0.033849575 0.11835653 0.29626495
-0.07976304 0.009839343 -0.006509019 0.116636015 0.23760529 0.019204723 -0.03916592 0.12535569
0.0035721434 0.10083328 -0.017851772 0.16654989 0.09773038 0.06515245 -0.04030646 -0.0889423
-0.010774595 -0.030446077 0.06610897 0.25286314 0.13300341 0.12756199 -0.0026613649 -0.07603267
-0.05314192 -0.10434209 0.1683519 0.1192635 -0.020020097 0.12896267 -0.08156278 0.031669535
-0.13048176 0.19425964 -0.097799055 0.0035944516 0.0966499 -0.07458345 0.09701549 -0.18412073
0.20288967 -0.02075659 -0.046058726 -0.049794592 0.18030608 0.088927485 -0.03570973 -0.08397724
-0.03492023 0.13311845 0.060530152 0.10161253 -0.0876685 0.04598938 0.018508732 -0.060721915
0.23233582 -0.0016354022 0.13766725 0.14505474 -0.013925549 0.30962458 -0.12574169 0.14502929
0.20629877 -0.065908566 0.15177204 -0.03484398 0.079645805 0.14879082 -0.0250512 -0.01053207
0.1665887 0.15164666 -0.022617657 0.09270411 0.22346886 -0.050276358 0.15663332 0.14952834
0.15666027 0.17473157 -0.036485452 0.12955604 0.04277387 0.140365 0.016739283 0.045737904

lstm.weight_ih_l1 f4 [128, 64]
00000000: d29f 1ebd 11cc 1b3d 9264 0dbe 8300 babd
00000010: 07cc 283e 9e41 c2bd 3cab b43c e24c a93d
00000020: 84bc d3bd 51bf d83c f18e 063e ba4b 8b3d
00000030: 8c7e 143d 902c 073e 2270 61bd 5388 4ebd
00000040: 819c e7bd bc20 08ba 6df2 58bc 0f35 173e
00000050: 5a5c c2bd e014 1d3e e5d3 b3bd fa5e 163d
00000060: da65 afbc f863 95bd a40b 193e 0470 a2bc
00000070: 7d69 01be 0758 6d3d 2ff5 773d f5f5 0bbe
00000080: 039d e93d 7a1c b7bd de56 c7bc 7923 133e
00000090: 0fa1 97bc 5ca0 bcbd f8d7 5e3c b658 1e3c
000000a0: 8754 99bd cde5 153e 3d4b cabd de26 d0bd
000000b0: da47 f03d 0686 d3bd 5beb 233e c306 293e
000000c0: 8970 cabd 11e3 57bd 5a9d 5b3d fca5 063e
000000d0: a6e6 b0bd 01aa 03be 4520 983b 71d8 80bd
000000e0: 06d0 503d cc52 debd 5022 4d3d 8659 c03d
000000f0: 399d d6bd 5472 203e 8373 023e 35a3 29be
00000100: 4cdf 183e c136 373c c870 e83d ba34 e5bb
00000110: 744a 473d 43f8 d33c b902 4a3d 8df8 c1bd
00000120: 45d3 74bd 0031 a63d 30ed 09be c752 973c
00000130: 872a 9fbd 6596 973d 5da9 00be 7304 dd3d
00000140: f1d8 07be 9f3c a13d cc73 083e 818c 8bbd
00000150: e73f 0c3e 3605 98bc 8aa8 cb3d 1940 86bc
00000160: aaf3 663c 05d5 283e 066b c93d c42d a4bd
00000170: 6126 163e a067 743c 4cd6 0dbd ac28 3d3c
00000180: f573 0fbe 809d d9bd fa35 fcbc aa1e e1bd
00000190: 25b8 9f3c e35c 5b3d 1fde bbbd 91a9 ce3c
000001a0: 8cea 1bbd 250f 0fbc 0afd cc3d 170e 033e
000001b0: f2f3 15bc a051 a6bd 839b ac3d 5295 34bd
000001c0: de61 f5bd 3f61 0c3e a789 183d 70c2 0e3d
000001d0: 176d f2bd c734 dd3d 24ac 223d b959 dabc
000001e0: a5d0 1dbe 9b09 0cbe 7337 65bd 90da 193d
000001f0: 1090 ce3d 68fa bd3d e4d4 a1bc cda7 063e
00000200: f849 14be d842 a9bd d9f7 91bc 4743 13bd
00000210: ba48 fcbc f54b 2dbd aa48 91bd 7c32 8c3d
00000220: f1f7 56bd 1b57 9cbd c13c 1e3e bf73 f2bd
00000230: f662 58bd 4379 843d 359b 73bd 4f12 973d
00000240: 56ae e43b 4c9f 213e b9f5 db3a 2666 253e
00000250: ea74 a6bc 1f29 9fbd f864 ab3d 0aa5 fb3c
00000260: 04ac 18be eb95 96bd 5328 0a3e 6558 f8bd
00000270: 094f 953d b06e 3a3d 3cc8 dd3d 3ba6 58bd
00000280: acd3 21be 1b85 c7bc f86f e43c 52a3 603d
00000290: e73c afbc b85a 23be 533c 913d 8f6a e23d
000002a0: ca13 fc3d 8aa7 0dbe 0dc4 1c3e 49b5 183d
000002b0: bae8 cfbd 12af 5c3c c1d8 143e b2c8 12be
000002c0: 7f3c 593b 5a82 98bd a0c7 223e 65a4 623d
000002d0: 55d4 3d3d eef1 edbd 9eaf a7bc 8579 533d
000002e0: cf06 78bd 1cea 8cbd 1824 22be 3a85 bb3c
000002f0: 153c 833d 512c 173e 2232 c2bd 5a51 f33d
00000300: 66b4 f13c 81e8 f73d f208 febd 0695 1bbe
00000310: d637 49bd f8b7 13be 8884 0b3d 7ba2 46bd
00000320: 2c4d b8bd 8178 1ebe b260 ad3d df72 963c
00000330: 2ac3 9e3c 9d5d 91bd cfe6 33bd ce48 fcbd
00000340: 690c 2abd c717 8fbd bf05 0e3e 6fef 953d
00000350: 2c32 9c3d 2f3b cd3d 42c3 e83c 8c9f 003e
00000360: 8e83 a5bc f38d a4bd 67ee 1b3e 6941 afbd
00000370: 4af8 1fbc 9b00 c23d ec2b ebbd 5728 c3bc
00000380: b63f 07bd 079f a83d 1514 e23d 9cb1 ec3d
00000390: 0932 8cbc 2830 203e 8196 8a3d a165 eebd
000003a0: 952c dd3d 217b 18be 8754 80bb dfb3 b03d
000003b0: b2ab 14bd 8631 16be 5092 1a3d f319 d6bd
000003c0: ff96 18bd 61c4 8f3d 5b12 88bd 4dcf b3bd
000003d0: 8dd9 56bd f952 f03d 1d02 8dbc e0ef 183e
000003e0: 5d04 e53d a14e 6fbd 2068 543d 288c 093e
000003f0: 5308 cfbc 70f7 fc3d 4142 b1bc fc36 e0bd
-0.038726635 0.03803641 -0.13807896 -0.09082129 0.1648408 -0.09485172 0.022054307 0.08266617
-0.10338691 0.026458414 0.13140465 0.06801553 0.036253497 0.13200593 -0.05503858 -0.050422978
-0.113091476 -0.0005192866 -0.013241393 0.14766334 -0.09490271 0.15339994 -0.0878065 0.03671167
-0.021410871 -0.07294458 0.14945847 -0.019828804 -0.12637897 0.057945278 0.06053656 -0.13668044
0.11406901 -0.08940978 -0.024333414 0.14369 -0.018509416 -0.092102736 0.013601296 0.009664705
-0.074868254 0.14638443 -0.09877632 -0.10163663 0.117324546 -0.10328297 0.1600775 0.16506486
-0.09884746 -0.05270678 0.05361686 0.13149256 -0.08637743 -0.1285782 0.0046425187 -0.06291283
0.050979637 -0.10855636 0.05008155 0.09392075 -0.104792066 0.15668613 0.12739377 -0.16566165
0.14928931 0.011182488 0.11349636 -0.006994811 0.04865499 0.025875216 0.049319003 -0.094712354
-0.059771795 0.08114815 -0.13469386 0.018472089 -0.07771783 0.07401732 -0.12564607 0.10791864
-0.1326635 0.07872891 0.13325423 -0.06813908 0.13696252 -0.018557172 0.09944256 -0.016387986
0.01409618 0.1648751 0.09834866 -0.080165416 0.14663078 0.014917284 -0.034628198 0.011545341
-0.14009078 -0.10625744 -0.030787457 -0.10992177 0.019496987 0.05355538 -0.091732256 0.02522734
-0.03806548 -0.008731638 0.10009201 0.12798344 -0.009152399 -0.081210375 0.08428099 -0.044087715
-0.11981557 0.13708971 0.03724065 0.0348534 -0.118372135 0.10801082 0.039714947 -0.026654111
-0.15411623 -0.13675539 -0.055961084 0.037561953 0.100860715 0.09276277 -0.019754834 0.13149948
-0.14481342 -0.082647026 -0.017818378 -0.035952833 -0.030796397 -0.042308766 -0.07093938 0.06845567
-0.05248255 -0.076338015 0.15452863 -0.11838483 -0.05282875 0.06468441 -0.05947419 0.07376539
0.0069787903 0.15783423 0.0016781605 0.16152248 -0.02031942 -0.07771515 0.08368868 0.030718345
-0.14909369 -0.07352813 0.13491945 -0.12126235 0.072904654 0.045515716 0.10829207 -0.052892905
-0.15803403 -0.024355462 0.027885422 0.054843254 -0.021391345 -0.15952575 0.07091584 0.11055481
0.12308462 -0.13833442 0.15309162 0.037282262 -0.10151811 0.013469474 0.1453581 -0.14334372
0.003314763 -0.074467376 0.15896463 0.05533256 0.046345074 -0.1161841 -0.020469483 0.051629562
-0.06055337 -0.0688059 -0.15834081 0.022890676 0.06407944 0.14762999 -0.09482218 0.11880751
0.029504966 0.121048935 -0.1240405 -0.15193567 -0.049125515 -0.14425647 0.03406194 -0.048494797
-0.08999094 -0.15475656 0.08465709 0.018365322 0.01938017 -0.070979334 -0.043921288 -0.12318574
-0.04151574 -0.06986957 0.1386938 0.07321059 0.07626757 0.10021054 0.028413419 0.12560862
-0.020204332 -0.08034887 0.15227662 -0.08557398 -0.009763787 0.09472772 -0.11482987 -0.023822946
-0.033019744 0.08233457 0.110389866 0.11557314 -0.017113702 0.1564337 0.067669876 -0.11640478
0.10799519 -0.1489072 -0.0039163264 0.08628058 -0.036296554 -0.14667329 0.03773719 -0.10454168
-0.037253376 0.07019878 -0.06644126 -0.08779774 -0.052453566 0.11734576 -0.017212922 0.14935255
0.11182473 -0.058424596 0.051857114 0.13432372 -0.025272524 0.123518825 -0.021638038 -0.109479874

lstm.weight_hh_l1 f4 [128, 32]
00000000: 112f 843c 8833 c33d 9284 d93d 9857 ffbd
00000010: cf55 8dbd c8a9 073e 80d9 14be 8545 29be
00000020: 41db 833d 1754 e63d 8c69 4fbd 9009 84bd
00000030: 5c78 463d d62d 203e 6e64 993d 1a20 3d3d
00000040: 1813 1dbe 20ff 01be 8c66 cebd 4060 02bd
00000050: 258e 04be 0a8d 023e 6930 1bbe b4a0 10bd
00000060: 5bfb 8bbd cc35 ffbd 7159 acbd 87fc 10bd
00000070: 75ee 91bd 0263 9dbb c506 07be f0c5 23be
00000080: 8670 d5bd 066c a13d a561 80bc e741 bd3d
00000090: edfd a43d 4c19 193e 9619 0dbe 20f4 5fbd
000000a0: 29ef ddbd 0135 ebbb e0a7 883d d510 91bd
000000b0: a613 11be eccd ea3d 3695 0abe 294c d83d
000000c0: 2003 233e 2cd6 38bc 72d1 a43d d9c4 26be
000000d0: 2d42 e0bd b052 03be 1617 e33d a291 2d3b
000000e0: 1c67 f8bd fccd cbbd 3592 69bb ba0c fdbd
000000f0: 3c79 713d d9fc a83d 267c e0bd e446 d23d
00000100: f1f0 363d 76d3 15be 8df1 0a3e 35fa 0ebb
00000110: 277a 253d 172a 7b3d abe3 ddbd 90b7 8b3c
00000120: b3d6 a2bd 726c 093e 8578 abbc ef0b 183e
00000130: a6b9 23be 2ae5 d6bc b63e 013d 56fc 153d
00000140: f6ca 08be 307f 973c b651 8abc de6b 41bd
00000150: 4503 b93d 770f 383d ff01 d5bd e654 f6bc
00000160: 54f1 1abe 3d84 1e3e 27dd d33d 4849 28be
00000170: 98a4 243e 1068 f7bd bd9f 1e3e 2127 373d
00000180: de55 febd fa12 913d 3751 28bd f994 1bbe
00000190: def0 7c3b 4992 d6bd 23f1 0c3e 4116 fe3d
000001a0: 2954 e03d 7325 e03c 8a13 5dbc 0175 a3bd
000001b0: 0d60 843d 1188 283e 7082 29bc 5798 14be
000001c0: 28c4 293e 7c81 8d3d f7ac 77bd 7b8f 433c
000001d0: f5a3 0fbe 6097 b6bd 2717 80bb a034 163e
000001e0: 55ca bf3c 555c 04be 3136 d43d df92 e93d
000001f0: d747 1e3e 0dc7 2f3d 0fcd a8bd 1423 a13d
00000200: 9db8 503c c033 1f3c c94a d6bd c3fb d2bd
00000210: 453b ee3c 02dd 923d e3da c83d 4bc2 223d
00000220: 6760 54bc 2968 f43d 6389 95bd 868a 9e3d
00000230: 1905 113e 0e0e 9a3d 56f9 b7bd 2c6f 303a
00000240: ba5d 7ebc 9aec e3bd 61d4 113e 5230 923d
00000250: 7b13 0a3c 7296 b63d 57c1 09be 9028 043e
00000260: 8baa f0bd 7225 7e3d 421a 043c 61ae ae3d
00000270: efd9 f53d 34b8 15be a345 f83d 5ffb aebc
00000280: a439 e0bd 7b4b 97bd 49a5 433c 3eb9 4a3d
00000290: bf6e b1bd 9981 e5ba f0c7 fcbd 6106 2a3d
000002a0: dbef 81bd 9a36 1b3e 02cb 87bd d6ef 7f3d
000002b0: efcc 803d 7811 763d 2f7b db3d 2a19 a9bd
000002c0: a69b d43c 0059 82bd b503 12be c094 0a3e
000002d0: d277 f2bd f874 1b3e e427 ed3d 610d e5bd
000002e0: 4448 54bd cc5f 03be 46bb cb3c 6007 863c
000002f0: 36ab 97bd b7cb 253e 2f1b 27be fe5f fcbd
00000300: 9c86 253d d540 03bc 1792 dabd a61c 043e
00000310: 19c1 d33c 1829 583d 66a9 9bbd 4a75 f63b
00000320: 6cb0 e9bd 8bbc 873c 96a5 eabd af24 21be
00000330: 7179 033e 3a65 183e 5ac8 efbc 12b2 17be
00000340: 4216 9c3d 263d 26be 4320 ff3d 3e1e 0c3e
00000350: 9453 343c b0b0 273e 9bf3 b1bc c6d4 f2bd
00000360: 2da8 dd3d 1b7f ddbd 4713 84bd 1e37 07be
00000370: 47fe 17be cf31 fb3d 3d6a ef3d be45 a53c
00000380: 17dd 1e3e 40a8 75bd 9265 f33c 5209 09be
00000390: 4430 013e e1aa 523d 080a 19be 1db7 ecbd
000003a0: ae06 19be 855b 03be c5c5 123e 1b88 75bd
000003b0: 7f0e 15be 4bc8 183e 559b bfbc 2551 503d
000003c0: 7cdc a73d e22a fd3d 57aa 123d 8e2a 87bd
000003d0: a9ba 273e 6a3b 0abe c20f b0bd 2ac3 c8bd
000003e0: e2df f43c 6f7f f7bd 70e5 8f3d e502 993c
000003f0: 2555 12bc 44ca 263e b648 d83d 6573 053e
0.016135724 0.09531313 0.10620989 -0.12467879 -0.06901132 0.1324836 -0.14536095 -0.16530426
0.06438304 0.112465076 -0.050637767 -0.064471364 0.048454627 0.15642485 0.074898586 0.046173193
-0.15339315 -0.12694979 -0.10078153 -0.031830072 -0.12944849 0.12749115 -0.15155186 -0.03530951
-0.068350516 -0.12461433 -0.08415497 -0.03539708 -0.0712556 -0.0048030624 -0.13186176 -0.15993476
-0.10421853 0.07881932 -0.01567156 0.092410855 0.08056245 0.14951056 -0.13779292 -0.054676175
-0.10836632 -0.0071779494 0.066726446 -0.070832886 -0.14167652 0.11465058 -0.13533482 0.105614014
0.15919161 -0.011281531 0.08047761 -0.16286029 -0.10950122 -0.12824512 0.11088388 0.002648451
-0.121290416 -0.09951398 -0.0035640125 -0.12355943 0.05895351 0.08251352 -0.109611794 0.102674276
0.044663373 -0.14631447 0.13568707 -0.0021816615 0.040399697 0.061319437 -0.1083444 0.017055303
-0.07951107 0.13420275 -0.020931492 0.14848302 -0.15988788 -0.02623232 0.031553946 0.0366176
-0.13358673 0.018493265 -0.016884666 -0.04722201 0.09033827 0.044936623 -0.10400771 -0.03006978
-0.15131122 0.15480132 0.10344916 -0.16434205 0.16078413 -0.12080395 0.15490623 0.04471505
-0.124187216 0.070836976 -0.041093078 -0.15193547 0.0038595716 -0.104771204 0.13763861 0.12406588
0.10953552 0.027361607 -0.013493428 -0.07981301 0.06463633 0.16458155 -0.01034604 -0.14511238
0.16578734 0.06909463 -0.060467687 0.011936064 -0.14027388 -0.08915591 -0.00390901 0.14668512
0.02341191 -0.12925847 0.10361899 0.114049666 0.15457092 0.04291444 -0.08242237 0.07868019
0.012739328 0.009716928 -0.10463483 -0.10301926 0.029080996 0.0717106 0.09807374 0.039736073
-0.012962437 0.119339295 -0.07301595 0.07741265 0.14162101 0.07522212 -0.08983104 0.0006730433
-0.015525276 -0.111291125 0.14241172 0.071381226 0.008427496 0.08915414 -0.1345266 0.12906098
-0.117512785 0.06204743 0.008062901 0.08529354 0.12004458 -0.14621049 0.12122657 -0.021360097
-0.10948494 -0.07387444 0.0119412625 0.049493067 -0.08663701 -0.0017509937 -0.123428226 0.04150999
-0.06344577 0.15157548 -0.066305175 0.062484585 0.06289088 0.060075253 0.10716855 -0.08256753
0.025953125 -0.06364632 -0.14259227 0.13533306 -0.1183926 0.15181339 0.11579874 -0.111841924
-0.05182673 -0.12829512 0.024869572 0.016360939 -0.07405703 0.16190992 -0.16318963 -0.123229966
0.040411577 -0.008011063 -0.10672396 0.12901554 0.025848912 0.052773565 -0.076006696 0.007521306
-0.11410603 0.016569396 -0.11457364 -0.1573665 0.12839295 0.14882365 -0.02927034 -0.14814022
0.07621433 -0.16234264 0.12457325 0.13683411 0.011006255 0.16375995 -0.021722605 -0.118569896
0.108230926 -0.10815259 -0.06448989 -0.1320462 -0.14843093 0.122653596 0.11690185 0.020174857
0.15514027 -0.05997491 0.029711518 -0.13382462 0.12616068 0.051432494 -0.14945233 -0.115583636
-0.14943954 -0.1282788 0.14333256 -0.059944253 -0.14556311 0.14920156 -0.023389498 0.050858635
0.08196351 0.12361695 0.03580698 -0.065999135 0.16379799 -0.13499227 -0.085967556 -0.098028496
0.029891912 -0.12084853 0.070261836 0.018678138 -0.008931433 0.16288096 0.105607435 0.13032301
